…
et.load_state_dict(torch.load(\u0026#34;my_resnet.pth\u0026#34;)) #其中my_resnet是my_resnet.pth对应的网络结构；   复现过程 0x01 先确定保存模型的方法 load(model)报错反序列化find_class出错，这个MyAutoEncoder就是他定义的类。\n那么就需要我们手动构建网络然后导入\n手动定义一个同名类后实例化load提示缺少Encoder\u0026amp;Decoder\n编写三个空类后可以成功load 看到保存的网络结构和训练好的参数\n至此我们可以确定保存的是第一种类型 即既保存网路模型又保存训练参数\n0x02 恢复网络结构 上面说到成功load model\n因为state_dict是具体参数我们可以暂时不管 直接print model查看网络结构\n1  print(ruokeqxmodel[\u0026#39;model\u0026#39;])   1 2 3 4 5 6 7 8 9 10 11 12 13 14 15 16 17 18 19 20 21 22 23 24 25 26 27 28 29 30 31 32 33 34 35 36  MyAutoEncoder( (encoder): Encoder( (conv): Sequential( (0): Conv2d(1, 16, kernel_size=(3, 3), stride=(2, 2), padding=(1, 1)) (1): ReLU() (2): MaxPool2d(kernel_size=2, stride=2, padding=0, dilation=1, ceil_mode=False) (3): Conv2d(16, 8, kernel_size=(3, 3), stride=(2, 2), padding=(1, 1)) (4): MaxPool2d(kernel_size=2, stride=2, padding=0, dilation=1, ceil_mode=False) (5): ReLU() (6): Conv2d(8, 8, kernel_size=(3, 3), stride=(2, 2), padding=(1, 1)) (7): MaxPool2d(kernel_size=2, stride=2, padding=1, dilation=1, ceil_mode=False) (8): ReLU() (9): MaxPool2d(kernel_size=2, stride=2, padding=0, dilation=1, ceil_mode=False) (10): Flatten(start_dim=1, end_dim=-1) ) (fc): Linear(in_features=32, out_features=16, bias=True) ) (decoder): Decoder( (convt): Sequential( (0): ConvTranspose2d(1, 256, kernel_size=(1, 1), stride=(1, 1)) (1): ReLU() (2): ConvTranspose2d(256, 256, kernel_size=(1, 1), stride=(1, 1)) (3): ReLU() (4): ConvTranspose2d(256, 512, kernel_size=(1, 1), stride=(1, 1)) (5): ReLU() (6): ConvTranspose2d(512, 128, kernel_size=(4, 4), stride=(4, 4)) (7): ReLU() (8): ConvTranspose2d(128, 64, kernel_size=(4, 4), stride=(4, 4)) (9): ReLU() (10): ConvTranspose2d(64, 32, kernel_size=(2, 2), stride=(2, 2)) (11): ReLU() (12): ConvTranspose2d(32, 1, kernel_size=(2, 2), stride=(2, 2)) (13): Sigmoid() ) ) )   接下来照抄恢复网络结构\n1 2 3 4 5 6 7 8 9 10 11 12 13 14 15 16 17 18 19 20 21 22 23 24 25 26 27 28 29 30 31 32 33 34 35 36 37 38 39 40 41 42 43 44 45 46 47 48 49 50 51 52 53 54 55 56 57 58 59 60  class Encoder(Module): def __init__(self): super().__init__() self.conv = Sequential( Conv2d(1, 16, kernel_size=(3, 3), stride=(2, 2), padding=(1, 1)
…
